pytorch_model.bin (torch, 17471 bytes, 1 tensors)

v_head.summary.weight f4 [1, 4096]
00000000: c8de a23a c52f f63a 6eb9 f6ba 774f ff39
00000010: 5f68 24bb 9ccb 42bb b3b0 2d3b 4a2b 343b
00000020: 8565 f33a 0d6e 02bb f1e9 4f3a 1a89 08ba
00000030: 1653 603a a07d 0eba acf9 1a38 e545 0a3b
00000040: c9be a33a 91c2 85bb eef9 e838 4411 91bb
00000050: 4f71 d43a ed1f d13a 59f4 0fbb 5d03 a0ba
00000060: e9a7 153b 1cb2 1d38 fa29 68bb 4989 0638
00000070: 6365 9c39 9f3f dbba 25bf 06bb 339a 053a
00000080: 95f6 103a 1f02 273a da41 ffb8 6447 baba
00000090: a38e 523a 2eda 44b9 951c 0f3b 06fa 2cbb
000000a0: f376 1a39 0fd4 c0b8 2173 fa3a 08f7 05bb
000000b0: e5e6 223b 7d1a ffba bd75 fe3a 276b 3abb
000000c0: 0b19 c0b8 17d3 ffba 1a6a 21bb eac9 5f3b
000000d0: b133 9ab9 3920 b0b9 405e ce38 02d2 81ba
000000e0: 9bdf 96b7 6b2d 3dba c691 503b 7e7a 523b
000000f0: e3c3 aeb8 81a3 03bb 0b77 1e3b 224b 6c3b
00000100: 5122 a439 c320 6fba 1d83 4439 ec19 073a
00000110: 1239 c13a 6d2a b6b9 6219 26bb 285b a23a
00000120: 99a8 00bb da70 2bba 7e06 b43a d160 1539
00000130: 3fd3 a3bb b106 b13a 8aca 8539 8daf 9eba
00000140: e9fe fa39 a2c9 383b 4471 14bb 5b49 4bbb
00000150: 11da 263b 1445 82ba 05f6 dd3a 7f36 ae3a
00000160: bc94 203a ecbb dcba 315c f9b9 ac4e 0dbb
00000170: 2742 7f3b 22a4 673b 5b8a 173b 15e8 d439
00000180: 7b27 483b b06e 383a 4a0d 813a 9a87 4d3b
00000190: 9983 96b8 bb7c dcba 40c5 d7b9 8a57 8bb9
000001a0: 013b 103a db3e 463b 03a6 4c3a 366e a93a
000001b0: 95b4 81ba 8b49 853b dafe 293b 5553 cfb9
000001c0: 5297 d53a d2b2 16bb aa13 303b b0a4 ae39
000001d0: ad27 da3a c616 b33a 068b 99ba 18ab d539
000001e0: 48ab 3135 d34a cdba 8214 21bb 3168 c53a
000001f0: 710f 69ba c438 e8ba beef 2b3b 1aee 623b
00000200: 295a 3bbb b9ee 903a ae29 073b 04ca 1bba
00000210: b08e 873a e318 433a c843 35ba 0d32 25ba
00000220: f1c1 d93a a154 d73a b532 3a3a 3139 feba
00000230: 7c84 1eba 1797 a5ba da11 59bb aefb 5739
00000240: 7698 773b 91f8 6e3b babb e5ba 8d93 e7ba
00000250: c2d8 8eba f4ce 8b3a 5bc4 06b9 c7b7 df38
00000260: 8e50 1c3b 7165 973b ab61 603a b394 9d3a
00000270: 86ea 6abb 1159 77b9 0d2a 4abb 85f5 02ba
00000280: 806a aeba ec65 4f3b 5334 e339 2c3b 9c36
00000290: 3f6c bfba 698a eb3a 9d1a dbba 1aa8 f238
000002a0: b476 20bb 4a34 65ba 774f 29ba 436a 12bb
000002b0: 91f6 053b 91f8 f2b9 d2fb 26bb 8d81 bcba
000002c0: 391b 4c3b bafd f93a 815c 803b f0c3 a7b9
000002d0: bce9 993a b7d4 2d3b 521a 243b 251e 7cb9
000002e0: a714 953a bd48 183b e257 383b 3a1e a3b9
000002f0: b2b8 093b 4e43 a03a da7e 54b8 8788 6739
00000300: d821 66ba a9f2 8139 cb14 a73a 6c2d 933a
00000310: b68b 8bbb c471 9db9 60f0 6a3a e6e0 fbba
00000320: bcd8 5c3a 4d25 4c39 fc00 b43a 5410 f43a
00000330: 6031 e73a 3731 21ba 116a 39bb c48f c2b7
00000340: 19df 0dbb cee6 c9b9 21d0 ff3a 8fcb 43bb
00000350: c662 1fba 9bd6 a03a 73ff bd3a c03e 023b
00000360: a351 afb8 e36f fe3a 316b 123b aea7 fbb9
00000370: e235 203b 35b0 c739 1d12 be3a fc7d 043a
00000380: 90da cb3a 8395 553b 5c87 0e3a b9eb 8cba
00000390: 8757 bfb8 fa2d d239 29b3 8cba 8bb4 3cb8
000003a0: 153a 01bb 7095 5039 04af a03a dfac f8b9
000003b0: e8ef ccb9 1483 143b ec8a 2bba 7382 e839
000003c0: 56b2 fcba 045b ad3a d16b 10ba e189 a3ba
000003d0: b689 6e3b b691 9e39 8c42 fdb9 1841 dc39
000003e0: c324 cdb9 794d 7e3a 7229 8538 148c 2b3a
000003f0: a910 c8ba e88c 8cba e0d3 033b 7532 943a
0.0012426013 0.0018782547 -0.0018823573 0.00048696596 -0.0025086624 -0.0029723411 0.0026503026 0.0027491623
0.0018569684 -0.001990202 0.00079312833 -0.0005208418 0.00085573026 -0.00054355897 3.6948986e-05 0.002109879
0.0012492771 -0.004082032 0.00011109175 -0.004427107 0.0016208085 0.0015954949 -0.002196571 -0.0012208034
0.0022835678 3.7597594e-05 -0.003542541 3.2075946e-05 0.00029830178 -0.0016727335 -0.0020560708 0.0005096525
0.00055299076 0.00063708605 -0.00012171613 -0.001421195 0.0008032119 -0.00018773295 0.0021837105 -0.0026394143
0.00014730897 -9.1947724e-05 0.0019107797 -0.0020441432 0.0024856862 -0.001946285 0.0019413751 -0.0028445215
-9.159938e-05 -0.0019517866 -0.0024629892 0.003414745 -0.00029411682 -0.00033593344 9.840401e-05 -0.0009904506
-1.7985518e-05 -0.00072165456 0.003182517 0.0032116468 -8.333453e-05 -0.002008647 0.0024179842 0.0036055525
0.00031306085 -0.00091220083 0.0001874086 0.0005153704 0.001474174 -0.00034745355 -0.002534472 0.0012386786
-0.0019631742 -0.00065399485 0.0013734845 0.00014245814 -0.0049995477 0.0013506023 0.0002551864 -0.0012106762
0.0004787364 0.0028196354 -0.002265052 -0.0031019065 0.0025459568 -0.00099388 0.0016934281 0.0013291388
0.0006125679 -0.0016840673 -0.0004756167 -0.0021561785 0.0038949342 0.0035345634 0.0023123238 0.00040608706
0.003054111 0.00070355367 0.0009845879 0.0031361342 -7.177069e-05 -0.001682184 -0.00041154958 -0.00026577368
0.00055019563 0.0030249867 0.000780672 0.0012926522 -0.0009895737 0.004067605 0.0025939257 -0.00039544204
0.0016295707 -0.0022994769 0.002686719 0.00033310568 0.0016643904 0.0013663403 -0.0011714406 0.00040754
6.6186885e-07 -0.0015662558 -0.0024578874 0.0015060959 -0.00088905456 -0.0017717113 0.0026235427 0.0034626783
-0.0028587675 0.0011057473 0.0020624208 -0.00059428834 0.0010342207 0.0007442368 -0.0006914702 -0.00063017086
0.0016613585 0.001642842 0.0007102893 -0.0019395706 -0.00060469634 -0.0012633529 -0.0033122213 0.00020597756
0.0037780083 0.0036464075 -0.001752726 -0.0017667875 -0.0010898339 0.0010666535 -0.00012852384 0.000106677
0.0023851725 0.004620247 0.00085594755 0.0012022465 -0.0035845353 -0.00023588935 -0.0030847818 -0.00049956917
-0.0013306886 0.0031646444 0.000433358 4.656051e-06 -0.0014604403 0.0017970327 -0.0016716305 0.000115707706
-0.0024484815 -0.00087434484 -0.00064586796 -0.002234117 0.0020441154 -0.00046343033 -0.0025479686 -0.0014381871
0.0031144156 0.0019072809 0.0039172773 -0.00031998707 0.0011742632 0.0026524493 0.0025040102 -0.00024043822
0.0011373953 0.0023236715 0.0028128554 -0.00031112303 0.0021014628 0.001222709 -5.066288e-05 0.00022080737
-0.0008778847 0.00024785593 0.0012747286 0.0011228747 -0.004258598 -0.00030030136 0.000896221 -0.0019216805
0.000842463 0.00019468852 0.0013733204 0.0018620589 0.0017638616 -0.0006148996 -0.002829198 -2.3193548e-05
-0.002164787 -0.0003850967 0.0019516983 -0.002987597 -0.0006080087 0.0012270989 0.0014495685 0.0019873828
-8.359856e-05 0.0019412007 0.0022341723 -0.00047999382 0.002444618 0.00038087522 0.0014501248 0.00050541735
0.0015552808 0.0032590337 0.000543704 -0.0010751403 -9.123893e-05 0.00040088576 -0.0010734546 -4.4990837e-05
-0.0019718457 0.00019892096 0.001225919 -0.00047431045 -0.00039088656 0.0022661136 -0.00065438333 0.0004434768
-0.0019279222 0.0013225977 -0.000550923 -0.0012477004 0.0036398 0.00030244672 -0.00048305502 0.0004201017
-0.00039128037 0.00097008754 6.349654e-05 0.00065440056 -0.0015263754 -0.0010723146 0.00201153 0.0011306541
